…
best checkpoint, which is applied to calculate test dataset loss. All default maximum epochs are 100.

|  Datasets   | valid_loss | test_loss | best_epoch |
|  :----:  | :----:  |   :----:  | :----:  |
| Kd  | 0.7898 | 0.7453 | 47 |
| IC50  | 0.9264 | 0.9198 | 83 |
| Ki | 1.071 | 1.072 | 91 |

### 7. Architecture
Below is the architecture of DeepDTA with default hyperparameters settings.

<pre>
==========================================================================================
Layer (type:depth-idx)                   Output Shape              Param #
==========================================================================================
├─CNNEncoder: 1-1                        [256, 96]                 --
|    └─Embedding: 2-1                    [256, 85, 128]            8,320
|    └─Conv1d: 2-2                       [256, 32, 121]            21,792
|    └─Conv1d: 2-3                       [256, 64, 114]            16,448
|    └─Conv1d: 2-4                       [256, 96, 107]            49,248
|    └─AdaptiveMaxPool1d: 2-5            [256, 96, 1]              --
├─CNNEncoder: 1-2                        [256, 96]                 --
|    └─Embedding: 2-6                    [256, 1200, 128]          3,328
|    └─Conv1d: 2-7                       [256, 32, 121]            307,232
|    └─Conv1d: 2-8                       [256, 64, 114]            16,448
|    └─Conv1d: 2-9                       [256, 96, 107]            49,248
|    └─AdaptiveMaxPool1d: 2-10           [256, 96, 1]              --
├─MLPDecoder: 1-3                        [256, 1]                  --
|    └─Linear: 2-11                      [256, 1024]               197,632
|    └─Dropout: 2-12                     [256, 1024]               --
|    └─Linear: 2-13                      [256, 1024]               1,049,600
|    └─Dropout: 2-14                     [256, 1024]               --
|    └─Linear: 2-15                      [256, 512]                524,800
|    └─Linear: 2-16                      [256, 1]                  513
==========================================================================================
Total params: 2,244,609
Trainable params: 2,244,609
Non-trainable params: 0
Total mult-adds (M): 58.08
==========================================================================================
Input size (MB): 1.32
Forward/backward pass size (MB): 429.92
Params size (MB): 8.98
Estimated Total Size (MB): 440.21
…
We observe that all models ultimately converge to similar accuracy, except for CNNTransformer-huge, which is slightly inferior. There is no distinctive difference between the learning speed of all models.

### 3. Usage
`python main.py --cfg configs/one_of_the_config_files.yaml`

### 4. Architecture
For clarity and as an example, the architecture of the CNNTransformer-Medium is shown below.

<pre>
---------------------------------------------------------------------------------------------------------
Layer (type:depth-idx)                                  Output Shape              Param #
=========================================================================================================
├─CNNTransformer: 1-1                                   [-1, 64, 8, 8]            --
|    └─SimpleCNN: 2-1                                   [-1, 64, 8, 8]            --
|    |    └─ModuleList: 3                               []                        --
|    |    |    └─Conv2d: 4-1                            [-1, 16, 32, 32]          448
|    |    |    └─BatchNorm2d: 4-2                       [-1, 16, 32, 32]          32
|    |    |    └─ReLU: 4-3                              [-1, 16, 32, 32]          --
|    |    |    └─MaxPool2d: 4-4                         [-1, 16, 16, 16]          --
|    |    |    └─Conv2d: 4-5                            [-1, 32, 16, 16]          4,640
|    |    |    └─BatchNorm2d: 4-6                       [-1, 32, 16, 16]          64
|    |    |    └─ReLU: 4-7                              [-1, 32, 16, 16]          --
|    |    |    └─Conv2d: 4-8                            [-1, 64, 16, 16]          18,496
|    |    |    └─BatchNorm2d: 4-9                       [-1, 64, 16, 16]          128
|    |    |    └─ReLU: 4-10                             [-1, 64, 16, 16]          --
|    |    |    └─Conv2d: 4-11                           [-1, 32, 16, 16]          2,080
|    |    |    └─BatchNorm2d: 4-12                      [-1, 32, 16, 16]          64
|    |    |    └─ReLU: 4-13                             [-1, 32, 16, 16]          --
|    |    |    └─MaxPool2d: 4-14                        [-1, 32, 8, 8]            --
|    |    |    └─Conv2d: 4-15                           [-1, 64, 8, 8]            18,496
|    |    |    └─BatchNorm2d: 4-16                      [-1, 64, 8, 8]            128
|    |    |    └─ReLU: 4-17                             [-1, 64, 8, 8]            --
|    |    |    └─Conv2d: 4-18                           [-1, 128, 8, 8]           73,856
|    |    |    └─BatchNorm2d: 4-19                      [-1, 128, 8, 8]           256
|    |    |    └─ReLU: 4-20                             [-1, 128, 8, 8]           --
|    |    |    └─Conv2d: 4-21                           [-1, 256, 8, 8]           295,168
|    |    |    └─BatchNorm2d: 4-22                      [-1, 256, 8, 8]           512
|    |    |    └─ReLU: 4-23                             [-1, 256, 8, 8]           --
|    |    |    └─Conv2d: 4-24                           [-1, 64, 8, 8]            16,448
|    |    |    └─BatchNorm2d: 4-25                      [-1, 64, 8, 8]            128
|    |    |    └─ReLU: 4-26                             [-1, 64, 8, 8]            --
|    └─Sequential: 2-2                                  [-1, 2, 64]               --
|    |    └─PositionalEncoding: 3-1                     [-1, 2, 64]               --
|    |    └─Dropout: 3-2                                [-1, 2, 64]               --
|    |    └─TransformerEncoder: 3-3                     [-1, 2, 64]               --
|    |    |    └─ModuleList: 4                          []                        --
|    |    |    |    └─TransformerEncoderLayer: 5-1      [-1, 2, 64]               --
|    |    |    |    |    └─MultiheadAttention: 6-1      [-1, 2, 64]               --
|    |    |    |    |    └─Dropout: 6-2                 [-1, 2, 64]               --
|    |    |    |    |    └─LayerNorm: 6-3               [-1, 2, 64]               128
|    |    |    |    |    └─Linear: 6-4                  [-1, 2, 128]              8,320
|    |    |    |    |    └─Dropout: 6-5                 [-1, 2, 128]              --
|    |    |    |    |    └─Linear: 6-6                  [-1, 2, 64]               8,256
|    |    |    |    |    └─Dropout: 6-7                 [-1, 2, 64]               --
|    |    |    |    |    └─LayerNorm: 6-8               [-1, 2, 64]               128
|    |    |    |    └─TransformerEncoderLayer: 5-2      [-1, 2, 64]               --
|    |    |    |    |    └─MultiheadAttention: 6-9      [-1, 2, 64]               --
|    |    |    |    |    └─Dropout: 6-10                [-1, 2, 64]               --
|    |    |    |    |    └─LayerNorm: 6-11              [-1, 2, 64]               128
|    |    |    |    |    └─Linear: 6-12                 [-1, 2, 128]              8,320
|    |    |    |    |    └─Dropout: 6-13                [-1, 2, 128]              --
|    |    |    |    |    └─Linear: 6-14                 [-1, 2, 64]               8,256
|    |    |    |    |    └─Dropout: 6-15                [-1, 2, 64]               --
|    |    |    |    |    └─LayerNorm: 6-16              [-1, 2, 64]               128
|    |    |    |    └─TransformerEncoderLayer: 5-3      [-1, 2, 64]               --
|    |    |    |    |    └─MultiheadAttention: 6-17     [-1, 2, 64]               --
|    |    |    |    |    └─Dropout: 6-18                [-1, 2, 64]               --
|    |    |    |    |    └─LayerNorm: 6-19              [-1, 2, 64]               128
|    |    |    |    |    └─Linear: 6-20                 [-1, 2, 128]              8,320
|    |    |    |    |    └─Dropout: 6-21                [-1, 2, 128]              --
|    |    |    |    |    └─Linear: 6-22                 [-1, 2, 64]               8,256
|    |    |    |    |    └─Dropout: 6-23                [-1, 2, 64]               --
|    |    |    |    |    └─LayerNorm: 6-24              [-1, 2, 64]               128
|    |    |    └─LayerNorm: 4-27                        [-1, 2, 64]               128
├─PredictionHead: 1-2                                   [-1, 10]                  --
|    └─AvgPool2d: 2-3                                   [-1, 64, 1, 1]            --
|    └─Linear: 2-4                                      [-1, 10]                  650
=========================================================================================================
Total params: 482,218
Trainable params: 482,218
Non-trainable params: 0
Total mult-adds (M): 34.04
---------------------------------------------------------------------------------------------------------
Input size (MB): 0.01
Forward/backward pass size (MB): 1.27
Params size (MB): 1.84
Estimated Total Size (MB): 3.12</pre>
…
